fall_detection_model.onnx (onnx, 14219 bytes, 6 tensors)

sequential/dense_2/MatMul/ReadVariableOp:0 f4 [32, 2]
0.17429136 0.27179027 -0.24113481 -0.16504638 -0.19422203 -0.110643096 -0.15965961 -0.0420689
0.081819355 0.24617916 0.3143057 0.32551116 0.08861378 -0.0036118957 -0.20748827 -0.20061842
0.058839865 -0.003928037 -0.1783231 -0.18640396 -0.3270545 -0.28533092 -0.25202188 -0.283395
-0.10532476 -0.18667997 -0.11294603 -0.05660401 -0.020858368 0.034033336 -0.34667915 0.2069369
0.018993715 0.013865581 -0.19281028 -0.2105683 -0.2942032 -0.12224979 0.16104595 0.09613238
0.25863367 0.19786233 0.20148145 0.28123656 0.14244813 0.09184792 -0.06857474 -0.08039564
0.1611188 0.16176976 -0.22456218 -0.3827419 -0.14669044 -0.024733711 -0.065015174 0.018206675
0.20280161 0.22729003 -0.17032383 -0.23885006 0.12254726 0.1434185 0.058232546 0.05785892
00000000: 6f79 323e 1828 8b3e 0bec 76be eb01 29be
00000010: 24e2 46be d998 e2bd cf7d 23be 7050 2cbd
00000020: e890 a73d 6416 7c3e adec a03e 66a9 a63e
00000030: 247b b53d 8eb5 6cbb ce77 54be ea6e 4dbe
00000040: 1202 713d c3b6 80bb 559a 36be aee0 3ebe
00000050: b073 a7be e516 92be 0309 81be 2619 91be
00000060: 82b4 d7bd 0929 3fbe 4050 e7bd 9bd9 67bd
00000070: 2bdf aabc 8a66 0b3d ee7f b1be 44e7 533e
00000080: b598 9b3c 762c 633c 0f70 45be 379f 57be
00000090: cda1 96be 195e fabd 3be9 243e 0ee1 c43d
000000a0: a26b 843e 6c9c 4a3e 2751 4e3e 3dfe 8f3e
000000b0: ecdd 113e c31a bc3d ea70 8cbd 78a6 a4bd
000000c0: 54fc 243e f9a6 253e a1f3 65be bff6 c3be
000000d0: 0536 16be 5a9e cabc ad26 85bd 2a26 953c
000000e0: 3aab 4f3e b8be 683e 5f69 2ebe 1c95 74be
000000f0: 0ffa fa3d 4ddc 123e 4085 6e3d 7afd 6c3d

sequential/dense_2/BiasAdd/ReadVariableOp:0 f4 [2]
0.9398355 -0.9399255
00000000: 0f99 703f f59e 70bf

sequential/dense_1/MatMul/ReadVariableOp:0 f4 [64, 32]
-0.69934696 0.60731745 -0.26089674 0.09982043 0.08493631 0.09378629 0.44284955 -0.17560348
0.046305425 0.3075045 -0.10370099 -0.3991854 0.13664204 -0.38837245 -0.4519947 -0.3112599
0.013789649 -0.12288577 -0.5706412 -1.3591573 -0.013279067 -0.8387395 -0.44299495 -0.5149966
-0.10707355 0.8227698 0.15590993 -0.0582604 -0.35916018 -0.22278367 -1.0114533 0.3095076
-0.6184939 0.8658135 0.11421657 0.37479556 0.17296539 -0.12520152 -0.3301741 -0.86262494
-0.39261916 -0.031006783 -0.1866549 -0.0390129 -0.62508243 -0.493627 -1.4497216 -0.91597235
0.10982174 0.054808147 -0.42331663 -1.3929135 0.29187572 -1.4797524 -0.36767092 -0.2827008
0.13561441 1.1867338 0.2092064 -0.259238 -0.08197395 -0.2806623 -0.5292503 0.56722814
-0.15779908 0.5131588 0.050929572 0.79373 0.016318899 -0.40216205 0.7534473 0.9446407
0.71667063 0.070978545 -0.009176901 0.48176253 0.50110304 -0.35888973 -0.41660032 -0.055809677
0.007821579 0.0456213 -0.49549717 -1.5573951 0.3724456 -0.39684546 0.36145115 -0.034896985
-0.41749015 0.6957391 1.136324 0.16725752 0.30408442 -0.8276675 0.2014374 1.527692
0.19340862 0.21489143 0.7448767 -1.1450624 0.023971997 0.10698106 1.0293466 1.1298985
1.2900048 0.8399103 -0.89896095 0.4073359 1.5979263 -1.3904036 -0.11903981 -1.9781133
0.35078573 -0.017757598 -2.192117 0.6875971 1.8536103 -0.74327374 1.1584314 1.7425911
-0.29655623 1.2832973 -0.71714824 -0.06775126 0.90935934 -0.35994068 0.40346405 3.6908493
0.57979316 -0.16351505 0.49017808 -0.42360002 -0.092950985 -0.59761286 0.4022961 0.50062776
0.1627647 0.3197838 -0.53773785 0.6696834 1.9177864 -0.079669364 0.17268725 -0.2312604
0.09656627 0.12073825 0.44738778 -0.2870159 0.7530222 0.06519736 2.9533179 0.35258645
-0.44857746 0.94557136 0.22923091 -0.26036292 0.9269464 -0.037834268 0.64459926 2.5379446
1.1032603 0.4189164 0.28536555 -0.548837 0.08702197 -0.08076487 1.7657363 1.9915053
1.163592 1.1553638 -0.1726279 1.2787099 1.638099 -0.28108382 0.37903523 0.28023127
-0.22176015 -0.2033137 -0.6413691 0.26503977 1.3705049 0.058990143 0.35700232 0.23930824
-0.101926014 0.75776273 -0.43239385 0.052762516 0.8408806 0.024348693 0.8421345 2.5483017
0.8669939 -0.062686704 0.43844363 -1.2180301 0.09849116 0.053850528 0.920407 1.6614571
0.30254507 1.8956403 -0.30292833 0.50908875 2.2993596 0.027035464 0.013595529 -1.1576191
-0.17888817 0.15567327 -0.3621044 0.73104805 1.1814506 -0.0986154 1.8366417 0.94559497
-0.5748226 0.96231365 -0.9416592 0.07939906 0.8842962 -0.26670358 0.091427244 4.654702
0.15744263 0.82807636 0.52053505 1.2181587 -0.22051436 0.17113473 0.18414727 0.28366393
-0.07355074 0.38805556 -0.2615509 0.26090774 0.3003592 -0.16761647 -0.20934878 0.5723604
0.24261601 -0.2960045 0.17828213 -0.2235493 0.48115453 0.18205632 0.8623637 -0.2988778
0.3121233 0.83391404 1.2167298 -0.1987478 0.019696625 -0.17906308 -0.67019314 2.153515
00000000: 6708 33bf 2879 1b3f 4294 85be a76e cc3d
00000010: 17f3 ad3d 0713 c03d 2dbd e23e 66d1 33be
00000020: c2aa 3d3d 3b71 9d3e 2f61 d4bd 0762 ccbe
00000030: e4eb 0b3e c1d8 c6be d96b e7be 755d 9fbe
00000040: fbed 613c 89ab fbbd 8b15 12bf def8 adbf
00000050: 7290 59bc a2b7 56bf 3cd0 e2be d1d6 03bf
00000060: 6149 dbbd 0ba1 523f daa6 1f3e 75a2 6ebd
00000070: d8e3 b7be 6721 64be 4d77 81bf c877 9e3e
00000080: 9e55 1ebf f4a5 5d3f 61ea e93d 34e5 bf3e
00000090: d71d 313e d434 00be 940c a9be fdd4 5cbf
000000a0: 6105 c9be f001 febc 7622 3fbe fecb 1fbd
000000b0: 6705 20bf aebc fcbe 7a90 b9bf 2a7d 6abf
000000c0: 38ea e03d 827e 603d f5bc d8be fd4a b2bf
000000d0: bc70 953e 8768 bdbf 5d3f bcbe 29be 90be
000000e0: 81de 0a3e e5e6 973f 343a 563e d8ba 84be
000000f0: f5e1 a7bd f8b2 8fbe f37c 07bf dd35 113f
00000100: 1596 21be 605e 033f 879b 503d e431 4b3f
00000110: 36af 853c 2fe8 cdbe ece1 403f f9d3 713f
00000120: ba77 373f 335d 913d b65a 16bc 94a9 f63e
00000130: 4a48 003f 65c0 b7be a34c d5be b098 64bd
00000140: 1526 003c 66dd 3a3d ceb1 fdbe b958 c7bf
00000150: 31b1 be3e 542f cbbe 2010 b93e 24f0 0ebd
00000160: 45c1 d5be f51b 323f 1173 913f 8e45 2b3e
00000170: f4b0 9b3e 04e2 53bf 9b45 4e3e 698b c33f
00000180: e90c 463e 800c 5c3e 3db0 3e3f 6891 92bf
00000190: ec60 c43c e318 db3d a1c1 833f 84a0 903f
000001a0: e11e a53f 5d04 573f 4e22 66bf 558e d03e
000001b0: d988 cc3f bff8 b1bf 25cb f3bd d132 fdbf
000001c0: 309a b33e 6278 91bc a54b 0cc0 5d06 303f
000001d0: 1a43 ed3f 3047 3ebf 7b47 943f 3a0d df3f
000001e0: 38d6 97be 1643 a43f 0797 37bf 2cc1 8abd
000001f0: c6cb 683f 254a b8be d792 ce3e e036 6c40
00000200: 536d 143f 7d70 27be 9ff8 fa3e 1ae2 d8be
00000210: 165d bebd 28fd 18bf c1f9 cd3e 2429 003f
00000220: caab 263e b4ba a33e 30a9 09bf 5f70 2b3f
00000230: 067a f53f b129 a3bd edd4 303e 87cf 6cbe
00000240: 89c4 c53d 9e45 f73d 0310 e53e bff3 92be
00000250: 10c6 403f 3286 853d 2903 3d40 3686 b43e
00000260: f2ab e5be f710 723f 82bb 6a3e 4a4e 85be
00000270: 5c4c 6d3f 1bf8 1abd 7504 253f af6d 2240
00000280: a237 8d3f 367c d63e 6f1b 923e 9580 0cbf
00000290: 9338 b23d 0d68 a5bd a603 e23f a5e9 fe3f
000002a0: 95f0 943f f6e2 933f 5ec5 30be c4ac a33f
000002b0: 3aad d13f 38ea 8fbe e810 c23e 797a 8f3e
000002c0: 1815 63be 7731 50be c430 24bf 4bb3 873e
000002d0: b46c af3f a69f 713d 02c9 b63e 380d 753e
000002e0: 96be d0bd bdfc 413f ba62 ddbe 821d 583d
000002f0: f343 573f e976 c73c 2096 573f 6017 2340
00000300: 50f3 5d3f e361 80bd af7b e03e 69e8 9bbf
00000310: bcb5 c93d 5f92 5c3d cb9f 6b3f a0aa d43f
00000320: 30e7 9a3e 57a4 f23f 6c19 9bbe a453 023f
00000330: b528 1340 7a79 dd3c c8bf 5e3c dd2c 94bf
00000340: 762e 37be d068 1f3e bf65 b9be f725 3b3f
00000350: c639 973f dff6 c9bd 1317 eb3f 8312 723f
00000360: 9327 13bf 305a 763f 9410 71bf f99b a23d
00000370: 3c61 623f 5f8d 88be 353e bb3d 52f3 9440
00000380: a438 213e d0fc 533f c941 053f a0ec 9b3f
00000390: 84ce 61be f13d 2f3e 1a91 3c3e 663c 913e
000003a0: c5a1 96bd 38af c63e 00ea 85be b395 853e
000003b0: aec8 993e a7a3 2bbe 875f 56be 3686 123f
000003c0: 5570 783e e78d 97be 978f 363e 1cea 64be
000003d0: e359 f63e f96c 3a3e dec3 5c3f 8306 99be
000003e0: a0ce 9f3e 647b 553f cdbd 9b3f 8b84 4bbe
000003f0: d15a a13c 505c 37be c791 2bbf 31d3 0940

sequential/dense_1/BiasAdd/ReadVariableOp:0 f4 [32]
-0.59949744 -0.9928561 -0.34961808 -0.347595 -0.052098162 0.15586512 -0.4429073 -0.25406754
-0.58497006 -0.8416616 -0.041924138 -0.60569835 0.9585793 0.0065690535 -0.40523645 0.24588671
-0.7715968 -0.21750687 0.25469762 -0.32946068 -1.351961 0.22083561 -0.8525298 -0.28738922
-0.015182393 -0.7448073 -1.5534334 -0.050575927 -0.032515623 -0.25416872 -0.64226896 -1.4021358
00000000: aa78 19bf d12b 7ebf 2401 b3be f9f7 b1be
00000010: e264 55bd 1b9b 1f3e bfc4 e2be 2415 82be
00000020: 99c0 15bf 2277 57bf a5b8 2bbd 0c0f 1bbf
00000030: 7465 753f 3741 d73b 277b cfbe bac9 7b3e
00000040: 5e87 45bf 1fba 5ebe ba67 823e 12af a8be
00000050: 0f0d adbf bb22 623e 653f 5abf ae24 93be
00000060: 92bf 78bc b1ab 3ebf e8d6 c6bf b428 4fbd
00000070: 1a2f 05bd 6722 82be bd6b 24bf 3079 b3bf

sequential/dense/MatMul/ReadVariableOp:0 f4 [15, 64]
-1.1362312 -1.0693337 -0.6810653 -0.20721357 -0.7437082 -0.1948852 -1.7719802 -0.22456369
0.4138356 0.11898786 -1.3489634 1.3313075 0.30919832 0.24901174 0.13002174 -0.9862233
-0.6241516 -0.11139594 0.8729329 0.2861173 0.07006551 -0.8510452 0.2773237 -0.87873006
-0.41347605 1.7412509 -0.3557595 -0.9407756 1.6167028 0.31932205 0.5830273 0.05564628
0.16497993 -0.22465266 -0.36278751 -0.15693119 0.89098954 0.5651431 -0.11743021 -0.5956671
-0.550325 -1.9435633 2.2532418 -0.5548008 0.015809769 -0.35610884 -0.09356607 -0.37065202
-0.14776285 -0.029825846 1.158371 -0.61801493 -2.3031242 0.7940349 1.0090545 -0.97775346
0.08812571 -0.7570145 -0.6325452 1.9408122 -0.9501352 -0.054058183 0.6966278 -0.17683984
-0.3528375 -0.35683975 -0.7285541 -1.0726448 0.24092324 0.23527408 -0.2815728 -0.15498702
-0.07794411 -1.0069573 -0.19464006 -0.10323462 -1.2147235 -0.22607185 0.7090853 0.7397912
-0.35661456 0.33978918 -0.0053897114 0.56504196 -0.42646194 0.57679373 1.0340517 0.15955783
0.3765652 -0.406042 -0.38773575 -0.5640279 0.45509335 0.7715458 0.15381752 -0.16629744
-0.2501023 -0.6365949 0.040075205 0.42489004 -0.025945475 0.9722148 -0.08331203 -0.49552822
-0.013767827 -0.35292107 -0.8000648 0.3376122 -0.76726127 0.3498337 -1.0967851 0.18722968
0.039673973 0.90821505 -0.133102 -0.84264266 -0.13044976 0.5401271 0.3057892 -0.3018624
-1.0490509 -0.3693411 -0.25073344 0.34968215 -0.25959867 -0.66524845 0.96104896 0.5836565
-0.37648025 -0.4671071 0.24703024 -0.4428108 -0.24113938 -0.24094176 0.0040139165 0.6224261
0.108310536 -0.12619233 -0.15777256 -0.38034028 -0.09699992 -0.45159316 0.26730216 0.8367881
0.08096451 0.2790971 -0.09172252 -0.3540672 -0.20440452 0.22290455 -0.17521076 0.47458014
0.016403902 0.14063668 -0.29426083 0.07815991 -0.06068569 -0.090219684 -0.40721783 0.2894403
-0.07383119 -0.053297605 -0.27501154 0.31466004 0.4187521 0.20751514 0.21159269 0.18130614
0.66477275 -0.13665439 -0.07884275 0.36942503 0.24599366 0.25585112 0.1919622 -0.26991838
0.32945934 -0.15920168 -0.07520542 -0.39718765 -0.03697721 0.28205085 0.014602943 -0.049132787
0.0005013991 -0.1868949 0.31055993 0.1649876 -0.22394016 -0.41509613 -0.38427752 0.20780621
0.2657074 -0.011528399 0.65085214 0.10113066 -0.9803172 0.8512266 -0.7898614 0.20370343
-0.04785361 -0.2972684 -0.22524652 -0.32260793 -0.56146884 1.1510527 0.074530184 -0.73430455
0.5356596 -0.15037578 -0.43617857 0.39390153 -0.07719683 0.26118988 -0.0730559 -0.020227553
1.2660944 -0.4948023 -0.94274366 0.99813706 0.37822953 -0.054188482 -0.45049906 1.2374482
0.5673209 -0.12266047 0.60075384 0.6963339 0.10789251 0.7754934 -0.47754553 -0.53832483
0.96659946 -0.30470574 -0.22108571 0.47001642 0.32615006 -0.10722073 -0.21329413 0.8466859
-0.4258903 0.1113568 1.0541413 0.824365 0.21185791 0.07125337 1.0171087 -0.2610114
-0.1774151 0.16926715 0.76109064 0.97876704 -0.0838194 -0.5931095 -0.43928948 1.2535801
00000000: 0670 91bf eddf 88bf 4c5a 2ebf cb2f 54be
00000010: a963 3ebf fc8f 47be 3fd0 e2bf 06f4 65be
00000020: 42e2 d33e e8af f33d d5aa acbf 4968 aa3f
00000030: 3e4f 9e3e effc 7e3e 6b24 053e 2179 7cbf
00000040: 66c8 1fbf 8e23 e4bd 8878 5f3f f77d 923e
00000050: 827e 8f3d 19de 59bf 5ffd 8d3e 74f4 60bf
00000060: 22b3 d3be 4fe1 de3f 1c26 b6be abd6 70bf
00000070: 1ef0 ce3f 2e7e a33e 4741 153f 5bed 633d
00000080: 80f0 283e 590b 66be 49bf b9be 92b2 20be
00000090: e417 643f 38ad 103f 407f f0bd a47d 18bf
000000a0: 19e2 0cbf afc6 f8bf 1d35 1040 6d07 0ebf
000000b0: 7d83 813c e653 b6be 919f bfbd 1ac6 bdbe
000000c0: 254f 17be 5555 f4bc 8045 943f 3a36 1ebf
000000d0: 6366 13c0 df45 4b3f b328 813f 0d4e 7abf
000000e0: 417b b43d b4cb 41bf 7bee 21bf 896c f83f
000000f0: 0f3c 73bf 1d6c 5dbd 3356 323f 8115 35be
00000100: 1ea7 b4be b3b3 b6be 8682 3abf 6d4c 89bf
00000110: 95b4 763e b0eb 703e 4f2a 90be ebb4 1ebe
00000120: 29a1 9fbd fae3 80bf b94f 47be ac6c d3bd
00000130: 0f7c 9bbf 617f 67be 9d86 353f f562 3d3f
00000140: 2f96 b6be d9f8 ad3e 2d9c b0bb 97a6 103f
00000150: 3859 dabe c1a8 133f ce5b 843f 2163 233e
00000160: 27cd c03e bde4 cfbe 4d85 c6be 2264 10bf
00000170: ff01 e93e 0784 453f 5782 1d3e e049 2abe
00000180: 690d 80be e2f7 22bf e625 243d 308b d93e
00000190: 9b8b d4bc 12e3 783f 7f9f aabd e0b5 fdbe
000001a0: 7492 61bc 12b2 b4be 0cd1 4cbf 82db ac3e
000001b0: 3c6b 44bf 671d b33e 7463 8cbf 23b9 3f3e
000001c0: 2d81 223d c880 683f e44b 08be 6eb7 57bf
000001d0: 9f94 05be c545 0a3f 6790 9c3e b58d 9abe
000001e0: 4d47 86bf 471a bdbe 2260 80be 8a09 b33e
000001f0: 1eea 84be b94d 2abf 4e07 763f 836a 153f
00000200: 05c2 c0be a928 efbe 7ff5 7c3e 19b8 e2be
00000210: 3eed 76be 70b9 76be 2c87 833b 5157 1f3f
00000220: ead1 dd3d 9038 01be 218f 21be f6bb c2be
00000230: e5a7 c6bd 3837 e7be d4db 883e bf37 563f
00000240: b9d0 a53d d1e5 8e3e 04d9 bbbd 4c48 b5be
00000250: 6b4f 51be 1741 643e 736a 33be 2bfc f23e
00000260: 7a61 863c 1003 103e 5ba9 96be 4e12 a03d
00000270: 8f91 78bd 19c5 b8bd db7e d0be 8531 943e
00000280: cf34 97bd 974e 5abd 50ce 8cbe 1f1b a13e
00000290: ad66 d63e d97e 543e c1ab 583e 51a8 393e
000002a0: 8c2e 2a3f 21ef 0bbe 4f78 a1bd 4725 bd3e
000002b0: c3e5 7b3e ebfe 823e bd91 443e be32 8abe
000002c0: e5ae a83e c405 23be 4d05 9abd 2e5c cbbe
000002d0: 6a75 17bd f868 903e 2f41 6f3c 763f 49bd
000002e0: 5370 033a 6061 3fbe b601 9f3e 82f2 283e
000002f0: 9250 65be 7b87 d4be 06c0 c4be 27cb 543e
00000300: cd0a 883e 9ce1 3cbc 3f9e 263f 971d cf3d
00000310: 11f6 7abf fde9 593f 5b34 4abf a297 503e
00000320: 2602 44bd 9033 98be 06a7 66be de2c a5be
00000330: 6cbc 0fbf b255 933f 48a3 983d 62fb 3bbf
00000340: fd20 093f 1cfc 19be cc52 dfbe 76ad c93e
00000350: 5f19 9ebd aeba 853e 559e 95bd 41b4 a5bc
00000360: 620f a23f ba56 fdbe a657 71bf e985 7f3f
00000370: 4da7 c13e bef4 5dbd d0a7 e6be b464 9e3f
00000380: f13b 113f 6a35 fbbd 01cb 193f f042 323f
00000390: c0f6 dc3d bc86 463f d980 f4be a8cf 09bf
000003a0: 1073 773f 6402 9cbe 4b64 62be fea5 f03e
000003b0: 24fd a63e 8b96 dbbd c769 5abe 68c0 583f
000003c0: 4b0e dabe 090f e43d 1aee 863f 9609 533f
000003d0: 48f1 583e 49ed 913d 9e30 823f 49a3 85be
000003e0: 4eac 35be 5e54 2d3e d6d6 423f 7a90 7a3f
000003f0: 81a9 abbd 06d6 17bf 8dea e0be 5075 a03f

sequential/dense/BiasAdd/ReadVariableOp:0 f4 [64]
-1.3553467 -1.0218824 -0.88426334 0.44061384 -0.73817325 -0.30086657 0.17994875 -0.88351625
0.21967216 0.9659999 -0.58741605 -0.040058088 0.49162263 0.27048877 0.55957514 -0.20433995
-0.47363502 0.3185412 1.3039442 -0.90205264 0.6822501 -1.3838664 0.40919793 -1.5170724
-0.5222215 0.7973672 0.30792794 1.1391375 2.5021956 1.0232439 -0.5840773 -0.56780314
-0.1963805 0.6852708 0.07112593 -0.77247417 0.4473366 -0.26476657 0.5365328 -0.117039904
-0.22014202 -1.1570629 0.82828146 -0.42616463 0.9614166 -0.09570548 0.29845458 -0.58026254
0.4491643 0.6167006 0.36959058 0.07243612 0.94283956 1.3874912 -0.56217796 -1.9742758
1.1316468 -0.41721773 0.30000463 -0.37228334 0.15952447 -0.31642345 0.73121876 -0.3714767
00000000: 007c adbf 0bcd 82bf 155f 62bf 2398 e13e
00000010: ecf8 3cbf 2f0b 9abe 7c44 383e 1f2e 62bf
00000020: bdf1 603e c54b 773f e660 16bf f313 24bd
00000030: f6b5 fb3e 817d 8a3e 5140 0f3f 7e3e 51be
00000040: 4a80 f2be d517 a33e a5e7 a63f ecec 66bf
00000050: f1a7 2e3f 8922 b1bf 6482 d13e 6e2f c2bf
00000060: 4fb0 05bf 4220 4c3f bba8 9d3e 42cf 913f
00000070: f923 2040 a8f9 823f 1786 15bf 8c5b 11bf
00000080: f817 49be e86d 2f3f 79aa 913d dec0 45bf
00000090: 4e09 e53e 7c8f 87be 375a 093f 9eb2 efbd
000000a0: e96c 61be a31a 94bf 410a 543f 4032 dabe
000000b0: 661f 763f 3c01 c4bd 0acf 983e 168c 14bf
000000c0: ddf8 e53e 17e0 1d3f fa3a bd3e 6359 943d
000000d0: ef5d 713f 5099 b13f e5ea 0fbf 12b5 fcbf
000000e0: cdd9 903f 909d d5be 359a 993e ec9b bebe
000000f0: 625a 233e 4102 a2be 2731 3b3f 3232 bebe
