fall_detection_model.onnx (onnx, 13195 bytes, 6 tensors)

sequential/dense_2/MatMul/ReadVariableOp:0 f4 [32, 2]
-0.41439477 0.13800648 0.16352323 0.37542906 0.4208713 -0.49260727 -0.302182 -0.42327994
-0.30325255 -0.118429996 0.6114821 -0.507982 -0.27284974 0.13387586 -0.39122507 -0.18511064
-0.10465372 0.4796485 -0.005516107 -0.11162735 0.315237 -0.15382026 -0.04689386 0.22298776
0.32524228 -0.10063151 -0.3897369 0.41245413 -0.57559353 0.5697702 0.34997916 -0.34069145
0.7151583 -0.60352445 -0.09173781 0.20580809 0.4637708 0.048415903 0.38369134 0.08694392
-0.22794127 0.26544327 0.7132613 -0.19803844 -0.12990081 0.30362362 -0.07874299 0.027741915
-0.14512403 0.33064803 -0.09541532 0.5870033 -0.4471866 -0.17466694 -0.23054521 0.11247508
-0.016677976 -0.32215312 -0.18717882 0.13681461 0.71848977 -0.66280884 -0.08847652 0.16727036
00000000: 8d2b d4be 9251 0d3e a272 273e 3d38 c03e
00000010: 717c d73e 0537 fcbe 99b7 9abe 26b8 d8be
00000020: eb43 9bbe 6d8b f2bd 178a 1c3f 1c0b 02bf
00000030: f6b2 8bbe c116 093e a74e c8be a58d 3dbe
00000040: b154 d6bd 7d94 f53e 76c0 b4bb e19c e4bd
00000050: be66 a13e 0f83 1dbe c713 40bd e756 643e
00000060: 2886 a63e e517 cebd 988b c7be 302d d33e
00000070: 195a 13bf 76dc 113f 7830 b33e 1c6f aebe
00000080: 9d14 373f 9480 1abf 08e1 bbbd 5bbf 523e
00000090: 5e73 ed3e c14f 463d 3173 c43e a70f b23d
000000a0: 7069 69be 2ee8 873e 4b98 363f 97ca 4abe
000000b0: b804 05be 8e74 9b3e 0144 a1bd 0343 e33c
000000c0: 659b 14be b34a a93e 1b69 c3bd d945 163f
000000d0: a4f5 e4be e4db 32be 0b14 6cbe 5659 e63d
000000e0: 40a0 88bc 41f1 a4be ceab 3fbe 2119 0c3e
000000f0: f2ee 373f d7ad 29bf 2d33 b5bd ec48 2b3e

sequential/dense_2/BiasAdd/ReadVariableOp:0 f4 [2]
0.15812969 -0.15812908
00000000: c0ec 213e 97ec 21be

sequential/dense_1/MatMul/ReadVariableOp:0 f4 [64, 32]
-0.4804087 0.29090247 0.041243598 -0.06884618 -0.2988074 0.0022649835 -0.0028785758 0.009685553
0.006356531 -0.053771842 -0.028779296 -0.04665714 0.16343462 -0.1329428 -0.08061623 0.029319908
0.05197457 0.10012829 0.03236069 -0.2519132 0.2726511 -0.28133386 -0.12775452 -0.19503571
0.008216276 -0.39821115 -0.26564884 -0.026650548 -0.035698574 -0.016292889 0.08971645 0.015951492
-0.2276465 -0.44025025 0.206695 -0.13170712 -0.23095922 0.10577169 -0.33091518 -0.04414359
-0.24359724 -0.022801736 0.06761398 -0.19435497 0.2734311 0.006359819 -0.05479061 0.0025248847
-0.012783349 0.09532036 0.05650402 -0.08109995 0.17053236 0.33776718 0.07690814 -0.069952846
0.039685708 -0.02876616 -0.32352477 -0.035310462 0.19147833 0.29436988 0.045494955 -0.11193626
0.06415648 0.2822631 -0.6152749 -0.057602245 0.20566958 -0.22566548 0.12905084 -0.30952808
0.036981486 -0.09235105 -0.055113867 -0.26603308 -0.17784719 0.28126836 0.080089174 -0.20520961
-0.5070086 0.02736804 0.03597084 -0.53282326 0.11413012 -0.2809639 -0.03717871 0.20849545
0.13272023 0.08402082 0.11708967 0.24737816 0.0045964057 0.0220179 0.046393167 0.037548218
0.06639562 0.09444579 -0.30336672 -0.043574493 -0.4576632 0.2880543 0.2976879 0.2238754
0.2352051 0.28572914 0.31206256 -0.06571223 -0.021792825 -0.04880112 -0.1795195 -0.13497405
0.42684248 0.032145664 0.31684634 -0.5517067 0.062236454 0.23096125 0.23524292 -0.024759708
0.0306609 -0.24712649 -0.32772857 -0.33600846 0.007531129 0.0064379084 0.18762667 0.008120551
-0.11426712 -0.006101111 0.0671925 0.059389845 -0.19439583 -0.23132853 0.093196444 -0.04253279
0.2157344 0.0906901 -0.022878455 -0.057528708 -0.09542386 -0.46434155 -0.29318842 0.0355551
-0.4679317 -0.09932833 0.08955884 0.30623692 0.029892625 -0.42525628 0.22189674 0.018723987
0.17049176 0.079037555 -0.011087488 -0.3674195 0.09952116 -0.0067985724 -0.46285465 0.07670092
-0.1492043 0.13714492 0.1380205 -0.18922937 -0.1288061 -0.06501678 -0.1970654 -0.026374394
0.094883814 0.11602209 -0.27369997 0.021478025 0.0196643 0.028578524 0.33704618 -0.014357595
-0.16767219 0.21708614 0.33253902 0.2632158 -0.075052075 -0.40582526 -0.24404313 -0.04603518
0.041951098 0.029649656 -0.17780621 0.24512696 0.124821246 0.0024051354 -0.26167515 0.18739106
-0.040549297 -0.10916493 0.12531713 0.2054388 -0.30328038 -0.14619331 0.17100993 -0.37991694
0.10304578 0.20276935 0.10134115 0.110160075 -0.20349808 0.10186023 -0.52271956 -0.26747817
0.07059265 -0.26939964 -0.16554077 -0.2944406 -0.14760932 -0.19965243 0.24885108 -0.0029939725
0.15935259 0.059122894 0.09421149 -0.0010202065 0.15415625 -0.15043218 0.029515773 -0.24114099
0.13980517 0.21947661 0.28355256 -0.078551315 0.0068329982 -0.016645424 -0.03479612 -0.29538077
0.32515064 -0.34903303 0.26903057 -0.0025420396 0.10470005 -0.17905295 -0.44667682 0.040215403
-0.22753945 0.3395731 0.038861815 0.15412734 0.23241252 -0.03719287 0.38260376 -0.107900135
0.25231814 0.046161104 0.075862974 -0.09027257 0.083465755 0.32522634 0.033575017 -0.26833653
00000000: 21f8 f5be 2bf1 943e 0cef 283d 3aff 8cbd
00000010: 49fd 98be 1e70 143b 7da6 3cbb 27b0 1e3c
00000020: 724a d03b dd3f 5cbd 8fc2 ebbc 8f1b 3fbd
00000030: 685b 273e 2822 08be 1f1a a5bd 4e30 f03c
00000040: 49e3 543d 1010 cd3d a58c 043d c4fa 80be
00000050: ed98 8b3e fe0a 90be 15d2 02be 71b7 47be
00000060: 8f9d 063c 55e2 cbbe 2003 88be 4052 dabc
00000070: ab38 12bd aa78 85bc 42bd b73d b4ac 823c
00000080: 2a1c 69be 7b68 e1be dba7 533e 3bde 06be
00000090: 9380 6cbe d49e d83d b76d a9be e9cf 34bd
000000a0: 8e71 79be b5ca babc 3379 8a3d fd04 47be
000000b0: 29ff 8b3e 0766 d03b 1e6c 60bd 8978 253b
000000c0: 4071 51bc 5237 c33d c270 673d bb17 a6bd
000000d0: 09a0 2e3e d2ef ac3e 0482 9d3d 7043 8fbd
000000e0: 7b8d 223d 03a7 ebbc 0aa5 a5be b4a1 10bd
000000f0: e512 443e a6b7 963e eb58 3a3d d63e e5bd
00000100: 7964 833d ca84 903e a882 1dbf 55f0 6bbd
00000110: 0c9b 523e da14 67be e725 043e 777a 9ebe
00000120: e679 173d 8c22 bdbd 14bf 61bd 7d35 88be
00000130: 931d 36be 6802 903e cb05 a43d 7822 52be
00000140: 51cb 01bf f132 e03c 2956 133d 1b67 08bf
00000150: 0dbd e93d 80da 8fbe b448 18bd d57f 553e
00000160: d0e7 073e 1c13 ac3d b5cc ef3d b350 7d3e
00000170: 729d 963b e25e b43c c306 3e3d 29cc 193d
00000180: 6dfa 873d cb6c c13d e252 9bbe 2b7b 32bd
00000190: d552 eabe da7b 933e 8c6a 983e 983f 653e
000001a0: 9bd9 703e 174b 923e aac6 9f3e 2294 86bd
000001b0: de86 b2bc afe3 47bd f6d3 37be a336 0abe
000001c0: 198b da3e 2cab 033d af39 a23e a63c 0dbf
000001d0: a7eb 7e3d 1b81 6c3e 85e3 703e dfd4 cabc
000001e0: 912c fb3c ba0e 7dbe 0acc a7be 4d09 acbe
000001f0: b0c7 f63b 17f5 d23b 3521 403e 0f0c 053c
00000200: e104 eabd d4eb c7bb 399c 893d c442 733d
00000210: b30f 47be 63e1 6cbe c7dd be3d dd36 2ebd
00000220: 7be9 5c3e bbbb b93d 996b bbbc 39a3 6bbd
00000230: 966d c3bd 2dbe edbe cb1c 96be 39a2 113d
00000240: be94 efbe a76c cbbd a06a b73d 16cb 9c3e
00000250: 61e1 f43c 31bb d9be e638 633e 0c63 993c
00000260: 6495 2e3e 71de a13d 4ca8 35bc 691e bcbe
00000270: c0d1 cb3d 8fc6 debb 49fb ecbe 5f15 9d3d
00000280: 03c9 18be b86f 0c3e 3f55 0d3e 58c5 41be
00000290: bfe5 03be 8427 85bd 83cb 49be 1d0f d8bc
000002a0: 7252 c23d fd9c ed3d 6722 8cbe aff2 af3c
000002b0: 0717 a13c 821d ea3c 5191 ac3e 1e3c 6bbc
000002c0: 42b2 2bbe d44b 5e3e 8e42 aa3e 39c4 863e
000002d0: e7b4 99bd 54c8 cfbe 71e6 79be 638f 3cbd
000002e0: ead4 2b3d d6e3 f23c d512 36be 9002 7b3e
000002f0: 48a2 ff3d 7a9f 1d3b 49fa 85be 71e3 3f3e
00000300: 0517 26bd dd91 dfbd 2253 003e 8c5e 523e
00000310: 9147 9bbe b3b3 15be 3a1d 2f3e 7984 c2be
00000320: aa09 d33d c5a2 4f3e f38b cf3d 9b9b e13d
00000330: cd61 50be 199c d03d f3d0 05bf e6f2 88be
00000340: e192 903d c0ee 89be 8583 29be ebc0 96be
00000350: e626 17be b071 4cbe d1d2 7e3e 8636 44bb
00000360: 532d 233e d92a 723d f4f1 c03d 73b8 85ba
00000370: 23db 1d3e e50a 1abe 10cb f13c aaed 76be
00000380: 1629 0f3e 7abe 603e cd2d 913e 83df a0bd
00000390: 58e7 df3b fc5b 88bc 6086 0ebd 263c 97be
000003a0: 257a a63e 75b4 b2be 60be 893e 5998 26bb
000003b0: fb6c d63d a859 37be d3b2 e4be e8b8 243d
000003c0: 1a00 69be 86dc ad3e 912d 1f3d 8fd3 1d3e
000003d0: 8cfd 6d3e 8d57 18bd a4e4 c33e bffa dcbd
000003e0: d82f 813e 6d13 3d3d 0c5e 9b3d d3e0 b8bd
000003f0: 18f0 aa3d 1184 a63e f585 093d 6863 89be

sequential/dense_1/BiasAdd/ReadVariableOp:0 f4 [32]
0.049488965 -0.22290285 0.35146198 0.27001923 -0.0908018 0.31058416 -0.11427351 -0.061336566
-0.029350279 0.10438758 0.29074088 -0.08806571 0.28301945 0.09392894 -0.062185008 0.22113292
0.4052497 -0.096435726 0.34095126 0.17304744 -0.2062865 0.28496695 -0.1477837 -0.0640098
-0.2526891 -0.059060033 -0.083251424 -0.15039074 0.29698965 -0.1891991 0.15677057 -0.20998389
00000000: f1b4 4a3d a540 64be d3f2 b33e f63f 8a3e
00000010: 4bf6 b9bd e304 9f3e 3b08 eabd 0d3c 7bbd
00000020: ff6f f0bc 28c9 d53d fddb 943e cc5b b4bd
00000030: ede7 903e d15d c03d b5b5 7ebd ab70 623e
00000040: e47c cf3e 1880 c5bd 2a91 ae3e 5933 313e
00000050: c53c 53be 30e7 913e 9c54 17be 9217 83bd
00000060: 7760 81be efe8 71bd b97f aabd 0800 1abe
00000070: 070f 983e 69bd 41be 7788 203e 0406 57be

sequential/dense/MatMul/ReadVariableOp:0 f4 [11, 64]
-0.09223353 0.46986875 -0.10215937 -0.09428747 0.08784679 -0.019319465 -0.11641017 -0.06527937
-0.8965066 0.05580434 0.9982033 0.119557016 -0.2908435 -0.19856445 -0.39771092 -0.9332477
-0.046330992 0.26776773 0.36084354 0.018429086 0.045901626 -0.21197118 0.06766808 -0.32518598
0.3369195 0.13209681 -0.14933223 0.41454476 0.21103242 -0.94545287 -0.31904346 -0.31254902
-0.108411945 0.08980558 -0.09685134 0.14336239 0.17217074 0.6120391 -0.30212224 -0.23818728
0.35546917 -0.25660414 0.055932503 -0.67542803 0.11650843 -0.20362657 -0.123340234 0.08835889
0.10717604 -0.5617762 0.5232752 0.26004577 -0.17947736 0.30258092 -0.3798744 0.46721208
0.27781108 -0.10042423 -0.61185896 -0.10290687 -0.65601 -0.015833901 0.23605402 -0.30644652
0.19709168 0.027006868 0.06537331 -0.31026742 0.14269759 -0.020682143 0.07067804 -0.107610345
-0.029401692 0.12837827 -0.15055433 -0.3089223 0.21168 0.03245881 -0.51188135 -0.534398
0.09228501 -0.2596205 -0.39512745 -0.19163546 -0.23411241 0.13646129 -0.20334436 -0.42697355
-0.13409303 -0.039815236 0.4196504 -0.25543523 0.3638564 -0.54355574 0.042478852 0.15740791
0.14556639 0.18207866 0.25118166 -0.039842308 -0.019591669 0.34101743 -0.1603516 0.28667718
-0.021454709 0.00048596435 -0.015063567 0.09199357 -0.29434857 0.044700176 0.2064591 0.01612689
0.113554515 0.19063185 0.2163017 -0.47585478 -0.056885272 -0.47309795 -0.24403214 0.049327537
-0.050328724 0.14991371 -0.15604289 0.34156016 -0.35156384 -0.32320252 -0.18310416 -0.40459257
-0.112700894 0.06471816 0.16920018 -0.3323594 -0.1534026 0.060846753 -0.14546163 0.30971897
0.07494131 -0.1870502 0.19961281 0.3308375 0.06737264 -0.3280764 -0.3138834 -0.04320399
-0.14038119 -0.2549625 0.036702327 -0.004567955 -0.06999837 -0.14783841 -0.10957377 -0.019397162
-0.049436428 0.3294452 -0.18107691 -0.2519762 -0.09201046 0.11641623 -0.24116738 -0.04336068
-0.043519102 0.069784045 -0.10750202 0.12276668 0.04195967 0.070848525 -0.08241566 0.16954091
-0.14574635 0.1863832 0.12318117 0.040232025 0.20332493 0.07246335 0.19119667 0.2441113
-0.18082374 0.29304093 -0.050229914 0.17599237 0.00045810733 0.0006969452 0.10192275 -0.073354945
0.036978684 -0.042155493 0.26042935 0.109884776 -0.077869 -0.21095523 -0.23446587 -0.003676515
0.021815496 0.15162514 0.0195641 -0.20009229 -0.13714214 0.1462479 0.13740017 0.21194133
0.009762885 0.03457023 -0.106902294 -0.12890978 -0.072912805 0.52857935 0.405212 0.14725347
-0.069174774 -0.33922154 -0.06718224 -0.050309256 0.20285487 -0.06722254 -0.5819232 0.455828
0.21599016 -0.04194728 -0.034111463 -0.1706046 0.033399984 -0.2518167 -0.15565498 -0.1201867
0.039875947 -0.16628768 0.00448542 0.02783887 0.17713952 -0.2345691 0.5193952 0.2700273
-0.012554252 -0.117285274 0.036731143 -0.41897196 -0.048705947 -0.05127225 0.41167673 0.014288529
0.028325012 0.25686878 0.17045812 0.07730216 0.57544476 -0.4618427 0.15062146 -0.23880488
0.17437214 0.08592811 -0.3294744 0.1908583 0.05103025 -0.018092316 0.13968366 0.040725306
00000000: efe4 bcbd a392 f03e ef38 d1bd ca19 c1bd
00000010: 05e9 b33d db43 9ebc 7568 eebd 31b1 85bd
00000020: 7581 65bf 1793 643d 408a 7f3f 4fda f43d
00000030: 70e9 94be 7b54 4bbe c4a0 cbbe 52e9 6ebf
00000040: 91c5 3dbd da18 893e 7cc0 b83e 98f8 963c
00000050: 5803 3c3d f90e 59be 9095 8a3d c77e a6be
00000060: b680 ac3e 6344 073e 8cea 18be 363f d43e
00000070: e218 583e 3309 72bf aa59 a3be 6d06 a0be
00000080: 1507 debd fdeb b73d ff59 c6bd 97cd 123e
00000090: 874d 303e 98ae 1c3f c4af 9abe 5ee7 73be
000000a0: 0e00 b63e 9e61 83be 7b19 653d dae8 2cbf
000000b0: f99b ee3d 7c83 50be ce99 fcbd 81f5 b43d
000000c0: 1d7f db3d 91d0 0fbf 5df5 053f b824 853e
000000d0: eac8 37be e3eb 9a3e e67e c2be 6c36 ef3e
000000e0: 413d 8e3e 38ab cdbd caa2 1cbf d6c0 d2bd
000000f0: 45f0 27bf 19b6 81bc 25b8 713e 8fe6 9cbe
00000100: 67d2 493e 823d dd3c 71e2 853d 5fdb 9ebe
00000110: 511f 123e 996d a9bc a6bf 903d d062 dcbd
00000120: d1db f0bc 9875 033e ea2a 1abe 102b 9ebe
00000130: a4c2 583e 87f3 043d a80a 03bf 4fce 08bf
00000140: ecff bc3d faec 84be 254e cabe 163c 44be
00000150: 2abb 6fbe 82bc 0b3e 8139 50be 479c dabe
00000160: af4f 09be 4d15 23bd 6bdc d63e 68c8 82be
00000170: 634b ba3e 7826 0bbf 4efe 2d3d 8a2f 213e
00000180: 5b0f 153e d472 3a3e e29a 803e b031 23bd
00000190: b57e a0bc d699 ae3e 3633 24be 5ac7 923e
000001a0: c9c1 afbc 08c9 fe39 2ecd 76bc 2067 bc3d
000001b0: dbb4 96be 8817 373d 046a 533e 8a1c 843c
000001c0: 458f e83d ff34 433e 317e 5d3e 3da3 f3be
000001d0: 8800 69bd e539 f2be 90e3 79be ac0b 4a3d
000001e0: 7e25 4ebd fb82 193e b5c9 1fbe f9e0 ae3e
000001f0: 2d00 b4be cd7a a5be a87f 3bbe c226 cfbe
00000200: bacf e6bd f48a 843d d042 2d3e 032b aabe
00000210: 9215 1dbe 723a 793d e5f3 14be 7c93 9e3e
00000220: d47a 993d 168a 3fbe 4d67 4c3e 8863 a93e
00000230: abfa 893d a1f9 a7be 53b5 a0be abf6 30bd
00000240: 16c0 0fbe 728a 82be 2e55 163d c9ae 95bb
00000250: 4e5b 8fbd f462 17be 3668 e0bd cce6 9ebc
00000260: da7d 4abd 0bad a83e 3a6c 39be 0603 81be
00000270: fb6f bcbd a26b ee3d 95f4 76be f89a 31bd
00000280: 1641 32bd f0ea 8e3d 052a dcbd 196d fb3d
00000290: e7dd 2b3d 0819 913d 8bc9 a8bd 229c 2d3e
000002a0: 883e 15be 3ddb 3e3e 6946 fc3d 56ca 243d
000002b0: 6934 503e aa67 943d 0fc9 433e 50f8 793e
000002c0: dc29 39be 7609 963e e2bd 4dbd 5837 343e
000002d0: 202e f039 33b3 363a e0bc d03d 1e3b 96bd
000002e0: f676 173d 3dab 2cbd ff56 853e 450b e13d
000002f0: c879 9fbd a604 58be d217 70be b0f1 70bb
00000300: 69b6 b23c 9f43 1b3e e444 a03c fee4 4cbe
00000310: fd6e 0cbe 02c2 153e a1b2 0c3e 2607 593e
00000320: 82f4 1f3c 8399 0d3d 97ef dabd ed00 04be
00000330: 4f53 95bd fa50 073f f277 cf3e 9dc9 163e
00000340: 81ab 8dbd 72ae adbe d896 89bd 1411 4ebd
00000350: 30b9 4f3e f9ab 89bd ebf8 14bf 4a62 e93e
00000360: 862c 5d3e e9d0 2bbd 76b8 0bbd f9b2 2ebe
00000370: 6cce 083d 1eee 80be 0564 1fbe 7224 f6bd
00000380: f654 233d 5147 2abe 6efa 923b 580e e43c
00000390: 1064 353e e232 70be 15f7 043f 0541 8a3e
000003a0: 59b0 4dbc 4333 f0bd 6573 163d 7e83 d6be
000003b0: e37f 47bd da02 52bd 4bc7 d23e 6f1a 6a3c
000003c0: db09 e83c 4e84 833e 938c 2e3e 9850 9e3d
000003d0: 5950 133f a576 ecbe 833c 1a3e 4489 74be
000003e0: 9c8e 323e 14fb af3d deb0 a8be 5c70 433e
000003f0: 1805 513d 5636 94bc 3c09 0f3e 94cf 263d

sequential/dense/BiasAdd/ReadVariableOp:0 f4 [64]
-0.17710495 0.117333785 -0.041380342 0.28683275 -0.23183273 -0.09160768 -0.36777106 0.077971175
0.077145666 -0.114817575 0.25746185 -0.43892753 -0.27421996 0.015681406 0.0885049 0.4264196
-0.120096944 0.14573924 0.28751898 -0.35130075 0.107643805 -0.08197507 -0.115345284 0.35604775
0.20452517 -0.38474688 0.11213567 0.29553095 0.08189826 0.0904192 -0.12199017 -0.07899339
-0.23969096 -0.08255498 -0.33412567 -0.23148577 -0.11168985 0.08189455 0.27338967 -0.5889928
0.2877047 -0.15238804 -0.12657252 0.023031035 -0.14385042 0.09102057 0.11629993 -0.23274872
-0.31846392 -0.030462798 0.14564572 0.25326717 -0.0037645837 0.28898767 0.29511148 0.19431527
-0.23573153 -0.14826775 0.23266621 -0.34886292 0.26483104 0.4596372 -0.17363212 0.13964084
00000000: 005b 35be b24c f03d 6f7e 29bd bedb 923e
00000010: 8f65 6dbe cf9c bbbd 7d4c bcbe 5aaf 9f3d
00000020: 8cfe 9d3d 7a25 ebbd 0ad2 833e 1cbb e0be
00000030: 8f66 8cbe 4b76 803c 0f42 b53d ab53 da3e
00000040: 63f5 f5bd ab3c 153e b035 933e b1dd b3be
00000050: 5b74 dc3d 8ce2 a7bd 263a ecbd e44b b63e
00000060: 0c6f 513e 8bfd c4be 63a7 e53d d54f 973e
00000070: 46ba a73d b42d b93d fbd5 f9bd 49c7 a1bd
00000080: 8c71 75be 9612 a9bd 8512 abbe 9b0a 6dbe
00000090: a6bd e4bd 54b8 a73d bbf9 8b3e 3bc8 16bf
000000a0: 084e 933e 9c0b 1cbe 3a9c 01be 95ab bc3c
000000b0: 864d 13be fe68 ba3d a82e ee3d ae55 6ebe
000000c0: b40d a3be 1e8d f9bc 2724 153e 3cac 813e
000000d0: 3cb7 76bb 31f6 933e da18 973e 95fa 463e
000000e0: 9b63 71be 80d3 17be 0d40 6e3e 299e b2be
000000f0: ef97 873e 9155 eb3e 9ecc 31be 02fe 0e3e
